…
W0819 16:28:57.951493 14872 deprecation_wrapper.py:119] From C:\Users\Roee\Anaconda3\lib\site-packages\keras\backend\tensorflow_backend.py:4138: The name tf.random_uniform is deprecated. Please use tf.random.uniform instead.

W0819 16:28:58.003397 14872 deprecation_wrapper.py:119] From C:\Users\Roee\Anaconda3\lib\site-packages\keras\optimizers.py:790: The name tf.train.Optimizer is deprecated. Please use tf.compat.v1.train.Optimizer instead.

_________________________________________________________________
Layer (type)                 Output Shape              Param #   
=================================================================
conv2d_1 (Conv2D)            (None, 13, 13, 64)        20800     
_________________________________________________________________
activation_1 (Activation)    (None, 13, 13, 64)        0         
_________________________________________________________________
conv2d_2 (Conv2D)            (None, 5, 5, 8)           41480     
_________________________________________________________________
activation_2 (Activation)    (None, 5, 5, 8)           0         
_________________________________________________________________
flatten_1 (Flatten)          (None, 200)               0         
_________________________________________________________________
dense_1 (Dense)              (None, 16)                3216      
_________________________________________________________________
activation_3 (Activation)    (None, 16)                0         
_________________________________________________________________
dense_2 (Dense)              (None, 1)                 17        
=================================================================
Total params: 65,513
Trainable params: 65,513
Non-trainable params: 0
_________________________________________________________________
loading model: CNN_2019-08-19-16-24-29.h5
W0819 16:28:58.066186 14872 deprecation_wrapper.py:119] From C:\Users\Roee\Anaconda3\lib\site-packages\keras\backend\tensorflow_backend.py:174: The name tf.get_default_session is deprecated. Please use tf.compat.v1.get_default_session instead.
…
