…
W0820 01:32:47.871308  8692 deprecation_wrapper.py:119] From C:\Users\Roee\Anaconda3\lib\site-packages\keras\backend\tensorflow_backend.py:174: The name tf.get_default_session is deprecated. Please use tf.compat.v1.get_default_session instead.

2019-08-20 01:32:47.875051: I tensorflow/core/platform/cpu_feature_guard.cc:142] Your CPU supports instructions that this TensorFlow binary was not compiled to use: AVX2
_________________________________________________________________
Layer (type)                 Output Shape              Param #
=================================================================
conv2d_1 (Conv2D)            (None, 13, 13, 64)        20800
_________________________________________________________________
activation_1 (Activation)    (None, 13, 13, 64)        0
_________________________________________________________________
conv2d_2 (Conv2D)            (None, 5, 5, 8)           41480
_________________________________________________________________
activation_2 (Activation)    (None, 5, 5, 8)           0
_________________________________________________________________
flatten_1 (Flatten)          (None, 200)               0
_________________________________________________________________
dense_1 (Dense)              (None, 16)                3216
_________________________________________________________________
activation_3 (Activation)    (None, 16)                0
_________________________________________________________________
dense_2 (Dense)              (None, 1)                 17
=================================================================
Total params: 65,513
Trainable params: 65,513
Non-trainable params: 0
_________________________________________________________________
---------
TOTAL - 20 batches
pid   type    s/i   f/i   d/i   k/i   l/i
 1    CNN    -0.037 0.049 0.019 0.002 0.456
 2   GREEDY  0.200 0.216 0.008 0.008 0.000

LAST UPDATE - 20 batches
pid   type    s/i   f/i   d/i   k/i   l/i
…
